[i] Data name:             DRIVE
[i] epochs:                100
[i] Batch size:            60
[i] algoritm:              deform_unet_v1
[i] gpu:                   0
[i] mode:                  gpu
[i] learning rate:         0.001
[i] optimizer:             Adam
[i] finetuning:            False
lr:0.001
Number of model parameters: 883442
DUNetV1V2(
  (inc): inconv(
    (conv): double_conv(
      (conv): Sequential(
        (0): Conv2d(1, 16, kernel_size=(3, 3), stride=(1, 1), padding=(1, 1))
        (1): BatchNorm2d(16, eps=1e-05, momentum=0.1, affine=True, track_running_stats=True)
        (2): ReLU(inplace=True)
        (3): Conv2d(16, 16, kernel_size=(3, 3), stride=(1, 1), padding=(1, 1))
        (4): BatchNorm2d(16, eps=1e-05, momentum=0.1, affine=True, track_running_stats=True)
        (5): ReLU(inplace=True)
      )
    )
  )
  (down1): deform_down(
    (mpconv): Sequential(
      (0): MaxPool2d(kernel_size=2, stride=2, padding=0, dilation=1, ceil_mode=False)
      (1): double_deform_conv(
        (conv): Sequential(
          (0): DeformConv2d(
            (zero_padding): ZeroPad2d(padding=(0, 0, 0, 0), value=0.0)
            (conv): Conv2d(16, 32, kernel_size=(3, 3), stride=(3, 3), bias=False)
            (p_conv): Conv2d(16, 18, kernel_size=(3, 3), stride=(1, 1), padding=(1, 1))
          )
          (1): BatchNorm2d(32, eps=1e-05, momentum=0.1, affine=True, track_running_stats=True)
          (2): ReLU(inplace=True)
          (3): DeformConv2d(
            (zero_padding): ZeroPad2d(padding=(0, 0, 0, 0), value=0.0)
            (conv): Conv2d(32, 32, kernel_size=(3, 3), stride=(3, 3), bias=False)
            (p_conv): Conv2d(32, 18, kernel_size=(3, 3), stride=(1, 1), padding=(1, 1))
          )
          (4): BatchNorm2d(32, eps=1e-05, momentum=0.1, affine=True, track_running_stats=True)
          (5): ReLU(inplace=True)
        )
      )
    )
  )
  (down2): deform_down(
    (mpconv): Sequential(
      (0): MaxPool2d(kernel_size=2, stride=2, padding=0, dilation=1, ceil_mode=False)
      (1): double_deform_conv(
        (conv): Sequential(
          (0): DeformConv2d(
            (zero_padding): ZeroPad2d(padding=(0, 0, 0, 0), value=0.0)
            (conv): Conv2d(32, 64, kernel_size=(3, 3), stride=(3, 3), bias=False)
            (p_conv): Conv2d(32, 18, kernel_size=(3, 3), stride=(1, 1), padding=(1, 1))
          )
          (1): BatchNorm2d(64, eps=1e-05, momentum=0.1, affine=True, track_running_stats=True)
          (2): ReLU(inplace=True)
          (3): DeformConv2d(
            (zero_padding): ZeroPad2d(padding=(0, 0, 0, 0), value=0.0)
            (conv): Conv2d(64, 64, kernel_size=(3, 3), stride=(3, 3), bias=False)
            (p_conv): Conv2d(64, 18, kernel_size=(3, 3), stride=(1, 1), padding=(1, 1))
          )
          (4): BatchNorm2d(64, eps=1e-05, momentum=0.1, affine=True, track_running_stats=True)
          (5): ReLU(inplace=True)
        )
      )
    )
  )
  (down3): down(
    (mpconv): Sequential(
      (0): MaxPool2d(kernel_size=2, stride=2, padding=0, dilation=1, ceil_mode=False)
      (1): double_conv(
        (conv): Sequential(
          (0): Conv2d(64, 128, kernel_size=(3, 3), stride=(1, 1), padding=(1, 1))
          (1): BatchNorm2d(128, eps=1e-05, momentum=0.1, affine=True, track_running_stats=True)
          (2): ReLU(inplace=True)
          (3): Conv2d(128, 128, kernel_size=(3, 3), stride=(1, 1), padding=(1, 1))
          (4): BatchNorm2d(128, eps=1e-05, momentum=0.1, affine=True, track_running_stats=True)
          (5): ReLU(inplace=True)
        )
      )
    )
  )
  (down4): down(
    (mpconv): Sequential(
      (0): MaxPool2d(kernel_size=2, stride=2, padding=0, dilation=1, ceil_mode=False)
      (1): double_conv(
        (conv): Sequential(
          (0): Conv2d(128, 128, kernel_size=(3, 3), stride=(1, 1), padding=(1, 1))
          (1): BatchNorm2d(128, eps=1e-05, momentum=0.1, affine=True, track_running_stats=True)
          (2): ReLU(inplace=True)
          (3): Conv2d(128, 128, kernel_size=(3, 3), stride=(1, 1), padding=(1, 1))
          (4): BatchNorm2d(128, eps=1e-05, momentum=0.1, affine=True, track_running_stats=True)
          (5): ReLU(inplace=True)
        )
      )
    )
  )
  (up1): up(
    (up): Upsample(scale_factor=2.0, mode=bilinear)
    (conv): double_conv(
      (conv): Sequential(
        (0): Conv2d(256, 64, kernel_size=(3, 3), stride=(1, 1), padding=(1, 1))
        (1): BatchNorm2d(64, eps=1e-05, momentum=0.1, affine=True, track_running_stats=True)
        (2): ReLU(inplace=True)
        (3): Conv2d(64, 64, kernel_size=(3, 3), stride=(1, 1), padding=(1, 1))
        (4): BatchNorm2d(64, eps=1e-05, momentum=0.1, affine=True, track_running_stats=True)
        (5): ReLU(inplace=True)
      )
    )
  )
  (up2): up(
    (up): Upsample(scale_factor=2.0, mode=bilinear)
    (conv): double_conv(
      (conv): Sequential(
        (0): Conv2d(128, 32, kernel_size=(3, 3), stride=(1, 1), padding=(1, 1))
        (1): BatchNorm2d(32, eps=1e-05, momentum=0.1, affine=True, track_running_stats=True)
        (2): ReLU(inplace=True)
        (3): Conv2d(32, 32, kernel_size=(3, 3), stride=(1, 1), padding=(1, 1))
        (4): BatchNorm2d(32, eps=1e-05, momentum=0.1, affine=True, track_running_stats=True)
        (5): ReLU(inplace=True)
      )
    )
  )
  (up3): deform_up(
    (up): Upsample(scale_factor=2.0, mode=bilinear)
    (conv): double_deform_conv(
      (conv): Sequential(
        (0): DeformConv2d(
          (zero_padding): ZeroPad2d(padding=(0, 0, 0, 0), value=0.0)
          (conv): Conv2d(64, 16, kernel_size=(3, 3), stride=(3, 3), bias=False)
          (p_conv): Conv2d(64, 18, kernel_size=(3, 3), stride=(1, 1), padding=(1, 1))
        )
        (1): BatchNorm2d(16, eps=1e-05, momentum=0.1, affine=True, track_running_stats=True)
        (2): ReLU(inplace=True)
        (3): DeformConv2d(
          (zero_padding): ZeroPad2d(padding=(0, 0, 0, 0), value=0.0)
          (conv): Conv2d(16, 16, kernel_size=(3, 3), stride=(3, 3), bias=False)
          (p_conv): Conv2d(16, 18, kernel_size=(3, 3), stride=(1, 1), padding=(1, 1))
        )
        (4): BatchNorm2d(16, eps=1e-05, momentum=0.1, affine=True, track_running_stats=True)
        (5): ReLU(inplace=True)
      )
    )
  )
  (up4): deform_up(
    (up): Upsample(scale_factor=2.0, mode=bilinear)
    (conv): double_deform_conv(
      (conv): Sequential(
        (0): DeformConv2d(
          (zero_padding): ZeroPad2d(padding=(0, 0, 0, 0), value=0.0)
          (conv): Conv2d(32, 16, kernel_size=(3, 3), stride=(3, 3), bias=False)
          (p_conv): Conv2d(32, 18, kernel_size=(3, 3), stride=(1, 1), padding=(1, 1))
        )
        (1): BatchNorm2d(16, eps=1e-05, momentum=0.1, affine=True, track_running_stats=True)
        (2): ReLU(inplace=True)
        (3): DeformConv2d(
          (zero_padding): ZeroPad2d(padding=(0, 0, 0, 0), value=0.0)
          (conv): Conv2d(16, 16, kernel_size=(3, 3), stride=(3, 3), bias=False)
          (p_conv): Conv2d(16, 18, kernel_size=(3, 3), stride=(1, 1), padding=(1, 1))
        )
        (4): BatchNorm2d(16, eps=1e-05, momentum=0.1, affine=True, track_running_stats=True)
        (5): ReLU(inplace=True)
      )
    )
  )
  (outc): Conv2d(17, 1, kernel_size=(1, 1), stride=(1, 1))
)
=================================================================
Layer (type:depth-idx)                   Param #
=================================================================
├─inconv: 1-1                            --
|    └─double_conv: 2-1                  --
|    |    └─Sequential: 3-1              2,544
├─deform_down: 1-2                       --
…
